data.pth (torch, 3287 bytes, 6 tensors)

l1.weight f4 [8, 18]
-0.07419553 0.27712297 0.07409863 0.19291884 0.7166277 -0.12992935 -0.39708903 0.52633333
-0.41358805 0.45923343 0.39167535 0.47698608 0.14945424 0.27545893 0.27369377 0.14617263
-0.1523357 0.28360593 0.15213318 0.38448453 0.07118 -0.02499363 0.7796104 -0.5227955
-0.3270733 0.9154703 -0.3157476 0.045151945 -0.10604749 0.6599567 0.52469826 0.3431582
0.09555677 -0.109925166 -0.18354772 0.1977264 -0.0757144 -0.17428797 0.02481331 0.6159438
-0.02885501 -0.2807529 -0.27730057 -0.18251386 0.1771142 0.37533683 0.33636856 0.060711045
-0.36660266 0.16157226 0.23865181 0.2943424 -0.021870796 -0.2084004 -0.22309883 -0.18872328
-0.15814194 -0.09408654 0.07150541 -0.05820243 0.045956 -0.102258936 0.01377371 -0.0033610463
0.13389157 -0.21184023 0.16280048 -0.03589596 0.1448708 0.20170341 0.23300372 -0.17109993
-0.009827917 0.09215831 0.08636512 0.142702 0.063519016 0.011285692 -0.19131696 0.14522079
0.12838833 0.20016827 -0.046601295 -0.017159035 -0.08053358 -0.09506823 -0.04247056 0.16320972
0.16745813 -0.107264735 -0.1508973 0.038552795 0.14257209 0.32898825 -0.05484827 -0.1477154
-0.16020027 -0.28517124 -0.2142947 0.12710261 0.09162465 0.039781883 -0.18775463 0.44066107
0.42489186 0.16168606 -0.24146172 -0.16993941 -0.08271604 -0.08807646 0.058507245 0.28290647
-0.06650668 -0.09804726 -0.28682745 -0.37801972 0.0815364 0.13569967 0.39973703 0.026714545
-0.071373835 0.65594697 0.45160145 0.27465218 -0.15872991 -0.06242537 -0.22826579 -0.031687327
-0.04120913 0.55959576 0.064350866 -0.11772297 -0.27426755 -0.16048996 -0.1053814 0.19841063
0.20461227 -0.08268133 -0.31535715 0.66117305 0.1734221 0.49502227 -0.02460401 -0.060406525
00000000: d3f3 97bd 10e3 8d3e 06c1 973d 848c 453e
00000010: ea74 373f 330c 05be 414f cbbe c8bd 063f
00000020: d0c1 d3be a520 eb3e ac89 c83e 8537 f43e
00000030: 880a 193e f408 8d3e 9721 8c3e 47ae 153e
00000040: e4fd 1bbe cc34 913e cdc8 1b3e 28db c43e
00000050: d2c6 913d 71bf ccbc 8c94 473f edd5 05bf
00000060: 2776 a7be 435c 6a3f aba9 a1be 3ff1 383d
00000070: 6d2f d9bd ecf2 283f a052 063f 6eb2 af3e
00000080: 45b3 c33d 7220 e1bd eff3 3bbe ca78 4a3e
00000090: 2710 9bbd 8c78 32be 4845 cb3c 7eae 1d3f
000000a0: 5861 ecbc d8be 8fbe 57fa 8dbe eae4 3abe
000000b0: 6d5d 353e 262c c03e 8038 ac3e 25ac 783d
000000c0: 58b3 bbbe 3373 253e 2461 743e 0cb4 963e
000000d0: 622a b3bc ea66 55be 0574 64be ad40 41be
000000e0: f6ef 21be 72b0 c0bd 6e71 923d ac65 6ebd
000000f0: 5c3c 3c3d 226d d1bd 20ab 613c 0045 5cbb
00000100: df1a 093e a5ec 58be 2bb5 263e a407 13bd
00000110: 0359 143e 578b 4e3e 8798 6e3e d234 2fbe
00000120: 4605 21bc 7fbd bc3d 32e0 b03d 7920 123e
00000130: 4216 823d a0e7 383c 98e8 43be c2b4 143e
00000140: 3b78 033e e9f8 4c3e 00e1 3ebd 1b91 8cbc
00000150: caee a4bd 22b3 c2bd 9cf5 2dbd 7320 273e
00000160: 257a 2b3e 9dad dbbd d284 1abe 89e9 1d3d
00000170: 6bfe 113e 2671 a83e 94a8 60bd b542 17be
00000180: 8a0b 24be f701 92be 1270 5bbe 3027 023e
00000190: b4a5 bb3d 54f2 223d c042 40be 549e e13e
000001a0: 6d8b d93e 0891 253e be41 77be 9904 2ebe
000001b0: 0767 a9bd 6e61 b4bd 4ba5 6f3d 1ed9 903e
000001c0: a734 88bd 00cd c8bd 0cdb 92be cd8b c1be
000001d0: 8efc a63d dbf4 0a3e 55aa cc3e 76d8 da3c
000001e0: 722c 92bd 24ec 273f 4e38 e73e 369f 8c3e
000001f0: 188a 22be bfb1 7fbd 82be 69be 92ca 01bd
00000200: e8ca 28bd ab41 0f3f 63ca 833d be18 f1bd
00000210: cc6c 8cbe 7b57 24be 34d2 d7bd 282c 4b3e
00000220: e185 513e d454 a9bd 7e76 a1be a342 293f
00000230: 9095 313e 8f73 fd3e 598e c9bc d56c 77bd

l1.bias f4 [8]
0.45057204 0.43074024 0.57704663 -0.22719136 -0.21205492 0.52768344 0.5330716 0.4164879
00000000: 61b1 e63e fc89 dc3e 54b9 133f daa4 68be
00000010: ed24 59be 4316 073f 6177 083f e73d d53e

l2.weight f4 [8, 8]
-0.3298313 -0.2960636 -0.39721432 -0.31954193 -0.03155446 -0.35239282 -0.22800902 -0.09913654
0.6944747 0.660003 -0.53927165 0.18605569 -0.31226972 -0.68713677 -0.22316062 -0.19220385
-0.14255914 -0.03276375 -0.22845715 0.041512787 -0.17505187 0.05651775 0.33851668 -0.1417229
0.42825466 -0.04092114 0.3552187 0.08674842 0.18362193 0.30753413 0.43620786 0.46332
0.47416094 -0.3359779 0.71432674 -0.07123467 -0.14711922 0.6836736 0.86154944 0.43942374
1.0189441 0.93577266 -0.23084663 0.03584361 -0.14064865 0.24763466 0.39928302 0.43731907
0.03887105 0.0055824863 0.46475813 0.17527255 -0.14635064 0.7283301 0.6143012 0.7528616
-0.21340442 -0.282429 0.15367869 0.037015796 0.23748764 -0.26672742 -0.08392596 0.07548168
00000000: a6df a8be a695 97be ad5f cbbe 009b a3be
00000010: 403f 01bd d56c b4be 327b 69be 1908 cbbd
00000020: 18c9 313f f5f5 283f b50d 0abf 6285 3e3e
00000030: d1e1 9fbe 32e8 2fbf 3884 64be 16d1 44be
00000040: 06fb 11be 4833 06bd acf0 69be 5009 2a3d
00000050: cc40 33be 287f 673d 0f52 ad3e cf1f 11be
00000060: 3244 db3e ed9c 27bd 3adf b53e 28a9 b13d
00000070: 6307 3c3e 1d75 9d3e a356 df3e 4738 ed3e
00000080: 39c5 f23e 4c05 acbe 1ede 363f 7ce3 91bd
00000090: 6ca6 16be 3c05 2f3f 818e 5c3f 26fc e03e
000000a0: c36c 823f cc8e 6f3f 0f63 6cbe c0d0 123d
000000b0: 3306 10be f193 7d3e d36e cc3e 49e8 df3e
000000c0: 4037 1f3d 4aed b63b c7f4 ed3e a67a 333e
000000d0: f1dc 15be d773 3a3f d842 1d3f 8abb 403f
000000e0: b086 5abe 899a 90be f25d 1d3e e09d 173d
000000f0: f62f 733e 7f90 88be 60e1 abbd 2496 9a3d

l2.bias f4 [8]
1.3902664 0.42546383 -0.27227193 -0.00076318195 -0.00016621735 -8.4063686e-05 -0.100862585 -0.19322914
00000000: 40f4 b13f 65d6 d93e 3a67 8bbe 4610 48ba
00000010: a14a 2eb9 594b b0b8 0b91 cebd dcdd 45be

l3.weight f4 [3, 8]
-1.585295 0.7467607 0.34277502 -0.2049658 -0.30095923 0.6755248 -0.96569926 0.07053575
-1.3627421 -0.59885734 0.30397633 0.049900725 0.9086337 0.025805857 0.88290334 0.351402
1.0603508 0.16243525 -0.28506845 -0.4565423 -0.34125847 -0.7368732 -0.4744303 0.32895133
00000000: f2ea cabf b62b 3f3f 3580 af3e 8ee2 51be
00000010: 5417 9abe 31ef 2c3f 1138 77bf 0c75 903d
00000020: 556e aebf b74e 19bf c9a2 9b3e b464 4c3d
00000030: 389c 683f ce66 d33c f405 623f f7ea b33e
00000040: 93b9 873f 6d55 263e 7ef4 91be eabf e9be
00000050: 6eb9 aebe b9a3 3cbf 87e8 f2be 4f6c a83e

l3.bias f4 [3]
-0.41270703 -0.17803913 0.8333793
00000000: 564e d3be e44f 36be 5958 553f
